keyword_spotting_on_off.tflite (tflite, 15280 bytes, 4 tensors)

keyword_spotting_on_off/dense/MatMul i1 [4, 128] scale=0.0099907955 zero_point=0
00000000: 1514 1b04 1606 dcfa 1a15 1813 12e1 fafd
00000010: e31b ef04 fb10 101c de01 f8dd 02d8 05e4
00000020: 0911 0507 00f7 f8e3 ed08 d9fa e70c fafc
00000030: 0712 04f8 fbfe 02f6 ffda f10b 0d0f f602
00000040: 09f5 09ff eff0 ece8 f602 0607 0ff1 f013
00000050: 0f09 e510 f70d 13fb e6e5 f20b f003 ef0a
00000060: f007 fc01 19fc fb10 f605 1d04 f0f5 f40d
00000070: 07f3 03f3 00e8 f4f3 0413 f802 0bfc 0901
00000080: 0111 eae7 0f10 1aed f9e4 f3f8 1209 efde
00000090: fcfb 1506 e10a 15ed 12e4 ebe4 ff08 fa24
000000a0: 1909 eeed ea1a 1326 fae3 0d11 ecd4 facf
000000b0: 0aff 0920 09e0 e8f7 f621 1607 d514 ec04
000000c0: 1cf0 0be4 0bfd fb00 03fc 0eea 0cff 0df6
000000d0: 0612 020c e7f1 19e6 edf4 1a12 fd0a f2ff
000000e0: 06fd 1012 d904 fa01 01f2 010f 06fb 101b
000000f0: 0d01 faf7 fefc 1603 f6f9 fdfc 06fa 0102
0.20980671 0.19981591 0.2697515 0.039963182 0.2197975 0.05994477 -0.35966864 -0.05994477
0.25976068 0.20980671 0.23977908 0.18982512 0.17983432 -0.30971467 -0.05994477 -0.029972386
-0.28973308 0.2697515 -0.16984352 0.039963182 -0.04995398 0.15985273 0.15985273 0.27974227
-0.33968705 0.0099907955 -0.079926364 -0.34967783 0.019981591 -0.39963183 0.04995398 -0.27974227
0.08991716 0.16984352 0.04995398 0.06993557 0.0 -0.08991716 -0.079926364 -0.28973308
-0.18982512 0.079926364 -0.38964102 -0.05994477 -0.24976988 0.11988954 -0.05994477 -0.039963182
0.06993557 0.17983432 0.039963182 -0.079926364 -0.04995398 -0.019981591 0.019981591 -0.09990796
-0.0099907955 -0.37965024 -0.14986193 0.10989875 0.12988034 0.14986193 -0.09990796 0.019981591
0.08991716 -0.10989875 0.08991716 -0.0099907955 -0.16984352 -0.15985273 -0.19981591 -0.23977908
-0.09990796 0.019981591 0.05994477 0.06993557 0.14986193 -0.14986193 -0.15985273 0.18982512
0.14986193 0.08991716 -0.2697515 0.15985273 -0.08991716 0.12988034 0.18982512 -0.04995398
-0.25976068 -0.2697515 -0.13987114 0.10989875 -0.15985273 0.029972386 -0.16984352 0.09990796
-0.15985273 0.06993557 -0.039963182 0.0099907955 0.24976988 -0.039963182 -0.04995398 0.15985273
-0.09990796 0.04995398 0.28973308 0.039963182 -0.15985273 -0.10989875 -0.11988954 0.12988034
0.06993557 -0.12988034 0.029972386 -0.12988034 0.0 -0.23977908 -0.11988954 -0.12988034
0.039963182 0.18982512 -0.079926364 0.019981591 0.10989875 -0.039963182 0.08991716 0.0099907955
0.0099907955 0.16984352 -0.2197975 -0.24976988 0.14986193 0.15985273 0.25976068 -0.18982512
-0.06993557 -0.27974227 -0.12988034 -0.079926364 0.17983432 0.08991716 -0.16984352 -0.33968705
-0.039963182 -0.04995398 0.20980671 0.05994477 -0.30971467 0.09990796 0.20980671 -0.18982512
0.17983432 -0.27974227 -0.20980671 -0.27974227 -0.0099907955 0.079926364 -0.05994477 0.35966864
0.24976988 0.08991716 -0.17983432 -0.18982512 -0.2197975 0.25976068 0.18982512 0.37965024
-0.05994477 -0.28973308 0.12988034 0.16984352 -0.19981591 -0.439595 -0.05994477 -0.48954898
0.09990796 -0.0099907955 0.08991716 0.31970546 0.08991716 -0.31970546 -0.23977908 -0.08991716
-0.09990796 0.32969624 0.2197975 0.06993557 -0.4296042 0.19981591 -0.19981591 0.039963182
0.27974227 -0.15985273 0.10989875 -0.27974227 0.10989875 -0.029972386 -0.04995398 0.0
0.029972386 -0.039963182 0.13987114 -0.2197975 0.11988954 -0.0099907955 0.12988034 -0.09990796
0.05994477 0.17983432 0.019981591 0.11988954 -0.24976988 -0.14986193 0.24976988 -0.25976068
-0.18982512 -0.11988954 0.25976068 0.17983432 -0.029972386 0.09990796 -0.13987114 -0.0099907955
0.05994477 -0.029972386 0.15985273 0.17983432 -0.38964102 0.039963182 -0.05994477 0.0099907955
0.0099907955 -0.13987114 0.0099907955 0.14986193 0.05994477 -0.04995398 0.15985273 0.2697515
0.12988034 0.0099907955 -0.05994477 -0.08991716 -0.019981591 -0.039963182 0.2197975 0.029972386
-0.09990796 -0.06993557 -0.029972386 -0.039963182 0.05994477 -0.05994477 0.0099907955 0.019981591

keyword_spotting_on_off/conv2d/Conv2D i1 [8, 3, 3, 1]
00000000: 0aee e821 dfdc fcea 8146 0e7f dcf9 3dbf
00000010: e3eb e154 a17a 7ff7 014a d085 5218 dc7f
00000020: 58a9 523e 77fa e948 01b2 7802 8127 d0fb
00000030: 0181 ce11 d509 c4a6 b511 06f4 687f 3481
00000040: 361d c4d9 649a 1179
10 -18 -24 33 -33 -36 -4 -22
-127 70 14 127 -36 -7 61 -65
-29 -21 -31 84 -95 122 127 -9
1 74 -48 -123 82 24 -36 127
88 -87 82 62 119 -6 -23 72
1 -78 120 2 -127 39 -48 -5
1 -127 -50 17 -43 9 -60 -90
-75 17 6 -12 104 127 52 -127
54 29 -60 -39 100 -102 17 121

keyword_spotting_on_off/conv2d_1/Conv2D i1 [16, 3, 3, 8]
00000000: 3c26 2958 f55d 2c0b 4117 ea42 05f0 22f3
00000010: 00dc 3757 eb11 2302 324e dc13 e84e 9ead
00000020: 0d4f 1f0a acff cdea fd62 de59 041c fa02
00000030: 242a bbe2 e640 81f5 08f1 a818 ac1a 88f8
00000040: d052 f43b d1f3 cf02 5614 f71f 05f1 b2e9
00000050: 0406 abf2 fb0c ebf7 9833 d84a 16c3 14e3
00000060: 3412 a8e3 ee0c a7dc b6f6 06f2 c806 000f
00000070: 8637 0d32 f594 1ccc fd07 bff8 a80a 9aca
00000080: cf18 ec04 81aa 3426 9f58 4257 a0b4 5f8a
00000090: 2c34 e400 ff4b 8144 f543 291f e7cc ca26
000000a0: 8f74 3b08 0bdc c4f2 16fd b2cd e769 b45d
000000b0: ff07 b425 e0aa c034 e83f 0111 d0ac 9dfd
000000c0: 7914 ffe6 f64c 3856 e133 ec03 fdfb 4844
000000d0: c1f6 e1d4 1007 c10c d3f4 1a31 1901 65c1
000000e0: 30ad 1e87 cfef 09b4 3dd6 08b5 d3f6 ab0a
000000f0: 2733 7f6b 1ae7 5321 ebf6 5acd f1fd 52f8
60 38 41 88 -11 93 44 11
65 23 -22 66 5 -16 34 -13
0 -36 55 87 -21 17 35 2
50 78 -36 19 -24 78 -98 -83
13 79 31 10 -84 -1 -51 -22
-3 98 -34 89 4 28 -6 2
36 42 -69 -30 -26 64 -127 -11
8 -15 -88 24 -84 26 -120 -8
-48 82 -12 59 -47 -13 -49 2
86 20 -9 31 5 -15 -78 -23
4 6 -85 -14 -5 12 -21 -9
-104 51 -40 74 22 -61 20 -29
52 18 -88 -29 -18 12 -89 -36
-74 -10 6 -14 -56 6 0 15
-122 55 13 50 -11 -108 28 -52
-3 7 -65 -8 -88 10 -102 -54
-49 24 -20 4 -127 -86 52 38
-97 88 66 87 -96 -76 95 -118
44 52 -28 0 -1 75 -127 68
-11 67 41 31 -25 -52 -54 38
-113 116 59 8 11 -36 -60 -14
22 -3 -78 -51 -25 105 -76 93
-1 7 -76 37 -32 -86 -64 52
-24 63 1 17 -48 -84 -99 -3
121 20 -1 -26 -10 76 56 86
-31 51 -20 3 -3 -5 72 68
-63 -10 -31 -44 16 7 -63 12
-45 -12 26 49 25 1 101 -63
48 -83 30 -121 -49 -17 9 -76
61 -42 8 -75 -45 -10 -85 10
39 51 127 107 26 -25 83 33
-21 -10 90 -51 -15 -3 82 -8

keyword_spotting_on_off/conv2d_2/Conv2D i1 [32, 3, 3, 16]
00000000: cc33 d2e8 cf16 a6ec 00e3 e91d e5fc 0ce7
00000010: df07 edbd 1812 8104 edec d50c 01f7 1216
00000020: 15fe eede f5cf eceb 1003 d31c f1e7 06f2
00000030: d1fb ed21 e816 dbdf f20c c52f 06fc 16df
00000040: c6f2 ebac 0304 cae1 ee13 9f2d f703 1411
00000050: 02f1 f7c1 ebf0 d4ea e7f1 b932 dde4 1de2
00000060: ef04 1331 20e1 dee7 2816 ca11 0b09 2ae2
00000070: de1b 0cd2 18e1 f0be eefd c134 01ee 2602
00000080: dfed dfe8 f4e1 ede0 f406 d537 07f7 11d0
00000090: f307 fa81 0fd2 a7e1 5ddf 01df fe12 dcf9
000000a0: e52c 1eda 08fd d709 d2d6 2cd9 de18 fc13
000000b0: f111 1a17 f517 43f5 ffe3 0907 d527 0231
000000c0: e8f6 dff8 f1d7 f2f3 1fee f1ec 04f1 d1ea
000000d0: e515 30fc 14e2 1a35 f868 0203 b941 15a0
000000e0: 25fb 262d 3026 1821 2550 3614 0114 da0c
000000f0: 22fe f719 10f8 071a 1811 fafa 16f2 9114
-52 51 -46 -24 -49 22 -90 -20
0 -29 -23 29 -27 -4 12 -25
-33 7 -19 -67 24 18 -127 4
-19 -20 -43 12 1 -9 18 22
21 -2 -18 -34 -11 -49 -20 -21
16 3 -45 28 -15 -25 6 -14
-47 -5 -19 33 -24 22 -37 -33
-14 12 -59 47 6 -4 22 -33
-58 -14 -21 -84 3 4 -54 -31
-18 19 -97 45 -9 3 20 17
2 -15 -9 -63 -21 -16 -44 -22
-25 -15 -71 50 -35 -28 29 -30
-17 4 19 49 32 -31 -34 -25
40 22 -54 17 11 9 42 -30
-34 27 12 -46 24 -31 -16 -66
-18 -3 -63 52 1 -18 38 2
-33 -19 -33 -24 -12 -31 -19 -32
-12 6 -43 55 7 -9 17 -48
-13 7 -6 -127 15 -46 -89 -31
93 -33 1 -33 -2 18 -36 -7
-27 44 30 -38 8 -3 -41 9
-46 -42 44 -39 -34 24 -4 19
-15 17 26 23 -11 23 67 -11
-1 -29 9 7 -43 39 2 49
-24 -10 -33 -8 -15 -41 -14 -13
31 -18 -15 -20 4 -15 -47 -22
-27 21 48 -4 20 -30 26 53
-8 104 2 3 -71 65 21 -96
37 -5 38 45 48 38 24 33
37 80 54 20 1 20 -38 12
34 -2 -9 25 16 -8 7 26
24 17 -6 -6 22 -14 -111 20
